reinforcement_learning/frozen_lake_dql.pt (torch, 3472 bytes, 4 tensors)

fc1.weight f4 [16, 16]
-0.2133097 -0.03513283 0.058243666 -0.13741684 -0.13176627 -0.21863136 -0.121589676 0.18341404
0.04997296 -0.20368502 -0.15473002 -0.13034618 0.094789535 0.056565516 0.4258421 -0.19595051
0.07640735 0.025740309 0.18106411 -0.22831827 0.2088552 -0.112169415 -0.10397266 -0.22117376
0.15509517 -0.07731322 -0.16703516 -0.22270432 0.17811945 0.023976414 -0.07069818 0.22541612
-0.2044068 -0.0023891954 -0.07712455 0.019240435 -0.19374403 0.11952761 -0.0795632 0.17433935
0.11688649 -0.13343212 -0.13422254 -0.15258107 0.055505037 -0.19606759 0.06523497 0.1690776
-0.13858277 0.22170961 0.0149745345 0.028316647 0.1456948 0.110265166 0.21760899 0.24864587
0.009890318 0.0036305487 0.004131615 -0.06694919 -0.018532813 0.23944344 -0.22982597 0.14844394
-0.042236466 -0.17124464 0.1801841 0.008731381 0.12699078 -0.20114928 0.02507809 -0.097138375
0.08369894 0.08508372 0.18295912 -0.03136581 0.110602945 0.09674694 0.017052522 0.219421
-0.22985023 0.18924092 -0.22756141 0.10744213 0.24237862 -0.08981472 -0.19530234 -0.20318758
-0.17188004 0.053577792 -0.17853022 -0.15039349 0.1541299 -0.05332197 -0.14214939 0.020516723
-0.1984096 -0.19526006 -0.037220422 -0.19654176 0.047376826 -0.15631285 -0.1980867 -0.12572974
-0.20427497 0.11994974 0.19607764 0.11218846 0.20952451 0.16733237 0.36395767 0.07224822
0.09418942 0.021640418 -0.23659822 -0.0020411904 -0.15985109 -0.1416966 -0.16790898 -0.040482044
0.116200045 -0.2347629 -0.11000803 0.027706146 -0.19271654 -0.23411876 0.5052679 0.24294809
-0.117636405 -0.17161436 -0.11763393 -0.10461499 0.029991722 0.13048205 -0.029217381 -0.023736835
-0.021449426 -0.021873154 0.006519691 -0.05844748 0.039764196 0.07310528 0.084714964 0.114836454
-0.21894333 0.07167897 -0.023503542 -0.1796821 0.16355276 0.19712117 0.20724697 0.108489364
0.0491423 0.34992525 0.040741563 0.09814224 0.16618729 -0.22494283 0.039636463 -0.22276124
0.20437376 0.07588491 -0.22765413 0.14135894 -0.12403062 -0.19029242 -0.047851115 -0.1912939
-0.2405816 -0.16908419 -0.0824621 -0.20366886 -0.043949634 0.07342249 0.14476371 0.059090644
-0.08847175 0.033075582 0.0436057 -0.027090829 0.06260224 0.14660582 -0.1143232 -0.12214106
-0.13240427 0.10875336 0.22854123 0.15771022 -0.23930806 -0.22827294 0.065730266 -0.11136755
-0.24425554 0.065558314 -0.17567739 -0.095106274 0.07974386 0.2123082 -0.046450317 0.19562793
0.21743569 0.15534574 0.033664912 0.12000099 -0.07966021 0.0584009 0.13952854 -0.04706335
-0.058563787 -0.05630696 -0.106861085 -0.20225787 -0.09064001 0.17134136 -0.22682747 -0.14828905
-0.20055017 0.19470035 0.013199698 0.084190875 0.15767995 0.40801784 -0.23090035 0.23701644
0.19027449 -0.14301175 -0.16731226 0.037778202 -0.029772073 -0.11650172 0.17081934 -0.02184534
0.04922451 -0.20744485 0.025010549 0.19375953 -0.122213066 -0.21705133 -0.005091127 0.07330072
-0.15124393 -0.15036741 -0.14891823 -0.16529372 0.10587012 -0.110619634 -0.0006497859 0.18576178
-0.14281303 0.081731796 0.21038036 0.23156652 0.18871275 -0.15828902 0.35547262 -0.154533
00000000: dc6d 5abe 71e7 0fbd e990 6e3d 00b7 0cbe
00000010: bded 06be e6e0 5fbe 0204 f9bd e4d0 3b3e
00000020: 72b0 4c3d ce92 50be 8c71 1ebe 7879 05be
00000030: 0421 c23d 3eb1 673d fa07 da3e 40a7 48be
00000040: 757b 9c3d 57dd d23c df68 393e 44cc 69be
00000050: 23de 553e 14b9 e5bd 9eef d4bd 607b 62be
00000060: 45d1 1e3e 6556 9ebd 440b 2bbe 9a0c 64be
00000070: f264 363e 2f6a c43c 35ca 90bd 7cd3 663e
00000080: 0450 51be 0c94 1cbb 7af3 9dbd 1e9e 9d3c
00000090: d664 46be e4ca f43d 08f2 a2bd 0486 323e
000000a0: 2f62 ef3d 6ea2 08be a271 09be 363e 1cbe
000000b0: 4059 633d f1c5 48be e999 853d ae22 2d3e
000000c0: a4e8 0dbe d807 633e c057 753c 50f8 e73c
000000d0: 0531 153e b4d2 e13d e4d4 5e3e 069d 7e3e
000000e0: 000b 223c 80ee 6d3b 8062 873b a81c 89bd
000000f0: 20d2 97bc a930 753e 8057 6bbe b001 183e
00000100: 2500 2dbd c15a 2fbe 2e82 383e 110e 0f3c
00000110: df09 023e 14fa 4dbe 9170 cd3c 7cf0 c6bd
00000120: 5a6a ab3d 6040 ae3d a359 3b3e 7079 00bd
00000130: cc83 e23d 4223 c63d bbb1 8b3c e6af 603e
00000140: dc5d 6bbe 5fc8 413e dc05 69be 9f0a dc3d
00000150: 1a32 783e c8f0 b7bd 56fd 47be 6810 50be
00000160: 5201 30be 6374 5b3d a0d0 36be c000 1abe
00000170: 3ad4 1d3e 2368 5abd 9c8f 11be b012 a83c
00000180: e32b 4bbe 41f2 47be 7174 18bd 3e42 49be
00000190: 340e 423d 7a10 20be 3dd7 4abe 4cbf 00be
000001a0: 752d 51be 36a8 f53d 94c8 483e 10c3 e53d
000001b0: 988d 563e 2d59 2b3e a958 ba3e e0f6 933d
000001c0: 62e6 c03d 3f47 b13c ce46 72be 7ec5 05bb
000001d0: 01b0 23be ea18 11be 55f0 2bbe 80d0 25bd
000001e0: 4afa ed3d b065 70be e44b e1bd 00f8 e23c
000001f0: 7c57 45be d4bc 6fbe 3d59 013f 62c7 783e
00000200: 5beb f0bd adbb 2fbe 0fea f0bd 6240 d6bd
00000210: 33b1 f53c 169d 053e 4a59 efbc c073 c2bc
00000220: b5b6 afbc 542f b3bc 22a3 d53b a066 6fbd
00000230: c8df 223d 39b8 953d 0a7f ad3d 602f eb3d
00000240: ae32 60be 6ccc 923d 808a c0bc 96fe 37be
00000250: 607a 273e 22da 493e 8d38 543e ac2f de3d
00000260: 7049 493d 6729 b33e a0e0 263d ccfe c83d
00000270: 002d 2a3e 6a57 66be d859 223d 861b 64be
00000280: 5b47 513e 8c69 9b3d 2a1e 69be 66c0 103e
00000290: c403 febd 04dc 42be 88ff 43bd 8ce2 43be
000002a0: 065b 76be 6824 2dbe e4e1 a8bd 928e 50be
000002b0: 8804 34bd 885e 963d f03c 143e 0809 723d
000002c0: ad30 b5bd 437a 073d e49b 323d 96ed ddbc
000002d0: 9a35 803d d61f 163e 4822 eabd 1825 fabd
000002e0: fc94 07be 15ba de3d b606 6a3e ca7e 213e
000002f0: 2c0d 75be 62c0 69be 979d 863d ac14 e4bd
00000300: 201e 7abe 7043 863d c6e4 33be 14c7 c2bd
00000310: c050 a33d 5267 593e b042 3ebd b052 483e
00000320: 76a7 5e3e f412 1f3e 38e4 093d 14c3 f53d
00000330: e424 a3bd c835 6f3d 92e0 0e3e 80c5 40bd
00000340: 95e0 6fbd 20a2 66bd fcd9 dabd b01c 4fbe
00000350: 78a1 b9bd 1c74 2f3e 7645 68be 16d9 17be
00000360: 065d 4dbe 875f 473e 8c43 583c 446c ac3d
00000370: da76 213e b7e7 d03e 2471 6cbe 70b4 723e
00000380: 51d7 423e ac71 12be e853 2bbe 51bd 1a3d
00000390: 90e4 f3bc 7498 eebd 44eb 2e3e 00f5 b2bc
000003a0: a49f 493d 6c6c 54be ece2 cc3c e668 463e
000003b0: d84a fabd b442 5ebe 78d3 a6bb b01e 963d
000003c0: b0df 1abe eaf9 19be 057e 18be c242 29be
000003d0: 6fd2 d83d 8c8c e2bd 6556 2aba 5638 3e3e
000003e0: 943d 12be 0063 a73d f36d 573e c61f 6d3e
000003f0: ea3d 413e 8416 22be 8200 b63e e63d 1ebe

fc1.bias f4 [16]
0.09268212 0.06262998 0.06532013 -0.098183855 0.19607082 0.116840586 0.16593494 0.18930012
0.20733656 -0.22028336 -0.22144867 0.06143689 -0.23137659 0.010837795 -0.061595026 0.11840523
00000000: 20d0 bd3d 2644 803d 8fc6 853d 9e14 c9bd
00000010: cac6 483e 1e4a ef3d d9ea 293e e4d7 413e
00000020: 0950 543e f691 61be 71c3 62be 40a5 7b3d
00000030: fced 6cbe 0291 313c 114b 7cbd 717e f23d

out.weight f4 [4, 16]
0.07753415 -0.16259061 -0.07164497 0.07150537 -0.009084476 -0.16872491 0.1698619 0.0846286
0.07989958 -0.17940162 0.13849248 0.21868137 -0.11755324 0.079422675 -0.059798345 0.2487569
0.30415797 -0.18765159 -0.0034963754 0.054271113 0.10249672 -0.07426376 0.26585478 0.26600525
-0.09031645 0.28827447 -0.055058286 -0.06192293 -0.0020906867 0.35038003 0.02017043 0.32994315
0.26379853 -0.19618513 0.09266699 -0.0486223 -0.1736891 -0.13377441 0.38891628 0.06788501
0.19776034 -0.07982935 0.185901 -0.027522651 0.046582323 0.35563695 0.1423492 0.13705087
0.24279834 -0.028819473 -0.0039786207 -0.056585576 -0.00093455263 -0.07346902 -0.0042943098 0.27818644
0.26421908 0.043197412 -0.21577305 0.18349588 -0.023406465 0.32216224 -0.22492594 0.042787444
00000000: 39ca 9e3d 277e 26be 99ba 92bd 6871 923d
00000010: 0ed7 14bc 39c6 2cbe 47f0 2d3e c251 ad3d
00000020: 64a2 a33d 0fb5 37be f9d0 0d3e 02ee 5f3e
00000030: c1bf f0bd 5ba8 a23d 1cef 74bd 21ba 7e3e
00000040: 98ba 9b3e bd27 40be 7223 65bb 634b 5e3d
00000050: cde9 d13d 9917 98bd 1e1e 883e d731 883e
00000060: d5f7 b8bd b698 933e cc84 61bd e6a2 7dbd
00000070: e703 09bb 0365 b33e 753c a53c 4fee a83e
00000080: 9a10 873e c1e4 48be 31c8 bd3d 2d28 47bd
00000090: 8edb 31be 29fc 08be 0920 c73e 4c07 8b3d
000000a0: b081 4a3e 927d a3bd d55c 3e3e 2f77 e1bc
000000b0: 1bcd 3e3d 0c16 b63e fdc3 113e 1057 0c3e
000000c0: 21a0 783e d116 ecbc 175f 82bb 47c6 67bd
000000d0: c4fc 74ba ed76 96bd 48b7 8cbb 746e 8e3e
000000e0: b947 873e c5ef 303d 9cf3 5cbe 58e6 3b3e
000000f0: eabe bfbc 73f2 a43e fc52 66be e341 2f3d

out.bias f4 [4]
0.03984704 0.0023054625 0.058728717 -0.01818091
00000000: a636 233d 3e17 173b 868d 703d 22f0 94bc
